hey_grookkkk.tflite (tflite, 206992 bytes, 9 tensors)

arith.constant f4 [1, 32]
000000 fd 90 c4 be 4a 95 25 3e 80 65 36 bd d1 fc 51 bd
       -0.38391867 0.1617023 -0.04453039 -0.051266495
000010 3f a6 c1 be da e1 5b 3e 7b 5c 34 3d 6d 9b 12 3d
       -0.37822148 0.21472874 0.04403351 0.035792757
000020 92 64 65 3e 4a 2b 41 3e d9 6e c5 be 61 9a dd 3d
       0.22401646 0.1886417 -0.38561133 0.10820461
000030 bb 87 b8 be 04 47 b2 be 31 b7 80 3e 3b 9b 18 3e
       -0.36041054 -0.34819806 0.25139764 0.14902966
000040 76 05 03 3e 0f 5d 4d 3e a2 8c 91 3d 2d c9 c1 3d
       0.12795052 0.2005503 0.07106902 0.09462199
000050 bf 68 0e 3e 8a 57 6a 3e fa 06 06 3d 66 41 b8 be
       0.13907145 0.22884956 0.032721497 -0.35987395
000060 a5 b2 21 3d 29 e0 e4 bd cf 75 01 3d 31 0a 57 3e
       0.03947701 -0.11175568 0.03160649 0.20999981
000070 25 73 a1 3d 23 c1 44 3e 70 72 bc be 5e 93 c5 be
       0.0788329 0.19214301 -0.3680606 -0.38588995

arith.constant1 f4 [32, 32]
000000 54 56 c8 bc ef 79 f6 3d a3 69 03 be fa 59 8a bd
       -0.024455227 0.12034976 -0.12833266 -0.06755443
000010 89 58 03 3e 76 f4 1c 3c 5d e7 43 3d 6f ad 06 be
       0.12826742 0.009579768 0.047828067 -0.13152097
000020 c4 52 15 be d7 f0 d7 3d 99 1e ff bd c1 b3 bd bc
       -0.14582354 0.105439834 -0.12457008 -0.023157002
000030 d6 ce 58 bd 98 46 31 be 1f 1f e6 bb 99 51 8b 3d
       -0.05293163 -0.17312086 -0.007022753 0.06802673
000040 ac 58 57 3d 65 f0 b0 bd 14 4b 25 bd a4 8d 17 3e
       0.0525748 -0.086396016 -0.040354803 0.14800125
000050 f9 25 3b 3e c4 e0 0b bd 97 42 97 3d ec 55 14 3e
       0.18276204 -0.0341499 0.07385748 0.14485902
000060 77 4f de 3b 6b be ad 3d 6e 7b 99 bd 7e fd d8 ba
       0.0067843753 0.08483585 -0.074942455 -0.0016555039
000070 24 d2 66 bd e2 b0 db 3c 7d 7b da bb b7 c7 a4 3b
       -0.05635275 0.026817743 -0.006667553 0.0050286907
000080 f7 96 08 be 27 9a 8b 3b 81 4f 5e bd 09 87 e6 3c
       -0.13338839 0.0042603198 -0.05427504 0.028140562
000090 fa 90 28 be 69 ae 1b bd ae 46 78 3c 76 8f 2b 3d
       -0.16461554 -0.038008127 0.01515357 0.041884862
0000a0 51 5f 05 bd 71 ad ce 3b 02 09 13 3e 4c aa 6a bc
       -0.032561604 0.006307297 0.14358905 -0.0143228285
0000b0 b4 45 ec 3d 3e 1b 8f bd 8a d2 9e bd b9 48 a8 3d
       0.11536732 -0.06987618 -0.07755001 0.08216996
0000c0 5c be 8f 3d 7a 44 26 3e 01 3b e5 3d 01 2c 14 be
       0.0701873 0.16237059 0.11192895 -0.14469911
0000d0 90 f8 10 3e 5b 9a 19 3e 83 bc 14 be dd 45 cc 3d
       0.14157319 0.15000288 -0.14525037 0.09974263
0000e0 2e b5 b7 b8 1c 58 28 be 44 98 2d 3e b3 bc 21 3c
       -8.759867e-05 -0.16439861 0.16952616 0.00987165
0000f0 14 45 a4 3d 88 04 25 3e 66 63 d9 3c c6 5d ca bd
       0.08020988 0.1611501 0.026536655 -0.09881167
000100 b6 37 a3 3d 74 1e 8f bd af cf 1d 3e b7 6d 07 3d
       0.079696104 -0.0698823 0.15411256 0.033063617
000110 11 a6 c3 bd 7b 1d 89 bd bf 0d a4 3d 94 35 4a bc
       -0.09553159 -0.06695076 0.08010434 -0.012341876
000120 34 01 69 3c 51 1d 22 be 42 9f b2 bd a4 40 a5 bd
       0.014221478 -0.15831496 -0.08721782 -0.0806897
000130 69 10 13 be 95 4b 05 be df a3 62 bc d4 88 f0 3d
       -0.14361729 -0.13017114 -0.013833015 0.11744848
000140 d8 5c 96 bd 64 ea b9 bd 7c 8f 9d 3c 73 a4 0c bd
       -0.07341927 -0.090779096 0.019233458 -0.03433652
000150 2b ac c6 bd fc 8d 39 bd 85 b9 b4 bc 35 00 ee bb
       -0.09700807 -0.045301422 -0.022061119 -0.0072632083
000160 2b f7 d3 3c fc 15 78 3d af c0 98 bd 9a 9e 14 bd
       0.025874695 0.06056784 -0.074586265 -0.036284067
000170 36 5a 69 bd d4 f3 62 3d db dc 02 be 32 2d b9 bd
       -0.056970797 0.055408314 -0.12779562 -0.090418234
000180 2e ed 9f bd b1 a3 53 3e 56 88 81 bd 54 9c ae bb
       -0.0780891 0.20667912 -0.06324832 -0.0053286944
000190 d9 86 ac bd c8 30 01 bc cf 4d 3e bd c1 01 64 bd
       -0.08424158 -0.0078851655 -0.046460923 -0.055665735
0001a0 0e c7 b2 bd 94 6f 43 3c ff 55 98 3d c2 d1 db bc
       -0.08729373 0.011928458 0.074382775 -0.026833419
0001b0 7b 39 19 be 29 59 62 3d cb 6d cf bd 65 93 d9 bd
       -0.14963333 0.05526081 -0.10128363 -0.106238164
0001c0 e0 af fa 3d 25 6f f8 3d d3 92 99 bd 50 54 c9 bd
       0.12240577 0.12130574 -0.074987076 -0.098305345
0001d0 00 9f 27 3c 38 29 15 3d 97 75 45 bd 7c c5 52 3d
       0.01023078 0.036416262 -0.048207846 0.051457867
0001e0 0d 9e 04 3e dd dc d1 3d 0d 52 1e bd e3 be 52 bc
       0.12950917 0.102472045 -0.03865247 -0.012862894
0001f0 94 71 11 bd 0b 22 bd bd 45 06 07 3e 27 3e e7 bd
       -0.035508707 -0.09235009 0.13185985 -0.112911515
000200 53 27 19 3e f7 63 33 3d 4a 01 62 3c ee 4d 68 3d
       0.14956407 0.043796506 0.013794253 0.056714945
000210 3a e3 27 be 62 fa 8a b9 06 ea d0 bc f3 52 10 be
       -0.16395274 -0.0002650796 -0.025502216 -0.14094143
000220 78 1e 86 3d 47 8c fa bd b9 a6 24 bd 48 44 cf bd
       0.0654878 -0.12233787 -0.04019806 -0.101204455
000230 7f af bf bd 92 37 df bd 5c 48 26 3e 45 ca d3 3b
       -0.09359645 -0.10899271 0.1623854 0.0064633214
000240 da 58 03 3e 1f ce d5 bd d5 cb 4c 3d d6 5b dc 3d
       0.12826863 -0.10439705 0.049999077 0.10759704
000250 7c 5e fb 3d ac d2 dd bd 6e 3d 16 3e aa 99 8d bd
       0.12273881 -0.10831198 0.14671871 -0.06914075
000260 a2 b9 ac bc 82 ed fd bc e2 5e fa bd fe c1 1e be
       -0.02108461 -0.030997042 -0.12225129 -0.1550369
000270 e9 33 03 be 9b 0e 14 3d 49 b1 b1 3d 81 04 c4 bd
       -0.12812771 0.03614674 0.086763926 -0.095711716
000280 85 37 e4 3c 84 87 b2 bd 99 30 3b 3e a5 dd da 3d
       0.027858505 -0.08717254 0.18280257 0.106868066
000290 33 5a 9c bd 19 82 3d 3d 22 bc f5 3d 3c 23 09 3e
       -0.07634392 0.04626665 0.11998774 0.13392347
0002a0 8b ac 0c be e9 41 11 3e 35 a2 a8 bd c5 82 76 3d
       -0.13737695 0.14185299 -0.082340635 0.060183305
0002b0 ad a8 ec bd eb 0d bc 3b 22 78 cc bd 25 53 24 be
       -0.1155561 0.005738964 -0.09983851 -0.16047342
0002c0 2a f7 3a bd 26 72 1d 3d 2e c4 8e 3c e3 7d 7e 3d
       -0.04564587 0.03843894 0.01742753 0.062131774
0002d0 88 57 20 be 44 5c c0 3b f0 f9 31 be e8 8f d3 bd
       -0.1565839 0.005870374 -0.173805 -0.10330182
0002e0 65 0f ca 3d da ca b7 bc ee c3 78 3d 40 ae 0a 3a
       0.098662175 -0.022435594 0.060733728 0.00052902475
0002f0 2b 7e d6 3d 47 12 00 3c 31 85 14 3b 4d ef 1a 3e
       0.104732834 0.007816858 0.0022662396 0.15130349
000300 b6 4d 5e bd 1c fc a4 bd 73 70 3b bd ce bf 99 bd
       -0.05427333 -0.080558985 -0.045761537 -0.07507287
000310 da ab 7d 3a 21 13 19 bd 9c ce 30 3d 9d 7b 2b bd
       0.0009676792 -0.03737176 0.043165788 -0.041865934
000320 6a ff 16 3e 7c 51 dd bc 58 e9 51 bc 4e 44 8e bd
       0.1474587 -0.027016394 -0.012811981 -0.06946622
000330 53 48 b8 3d 59 e1 2c 3e c8 15 b3 3d b5 90 ce bd
       0.0899817 0.16882838 0.08744389 -0.100861944
000340 bc 9f 12 3e ca 30 af 3d bf 5e 17 3e 1e cc 27 bd
       0.14318746 0.08554228 0.14782237 -0.040966146
000350 97 36 b0 bd d3 83 b9 3d e9 16 93 bd 30 41 a9 bd
       -0.08604162 0.090583466 -0.07182104 -0.08264387
000360 2f cb a5 3d 6e e5 0e be 30 a3 4c bd 96 76 bb bd
       0.08095395 -0.13954708 -0.049960315 -0.09153478
000370 0e e3 71 3d e5 f6 2e 3e e7 ca b9 bd fb 57 d1 3d
       0.059054427 0.1708637 -0.09071904 0.10221859
000380 21 08 db bc ce 4e 9d bd 24 37 e8 bd 10 e8 e5 3d
       -0.026737275 -0.076810464 -0.11338642 0.11225903
000390 95 b8 af bd 49 27 d3 3d 46 e8 e1 bd df 80 5c bd
       -0.08580128 0.103102274 -0.11030631 -0.05383384
0003a0 ce 11 18 3d 1e b4 03 be dd c2 05 3d 1d 0e 24 3e
       0.037126355 -0.12861678 0.03265654 0.16021009
0003b0 5e 31 28 3e 86 d3 9b 3d 9d ec 96 3c 50 33 8c 3d
       0.16425082 0.07608704 0.018423373 0.068457246
0003c0 97 8a 12 3e cc 34 02 3e 3b 6c 8e 3d bc 27 af bc
       0.1431068 0.12715453 0.06954237 -0.021381252
0003d0 ff 03 18 be 1f 59 bb 3c 15 f3 b5 bc 03 a3 39 be
       -0.14845274 0.022869645 -0.022210637 -0.1812859
0003e0 a7 3a 23 be bc 0e 40 bd 2f c5 60 3d fe a5 25 bd
       -0.15940343 -0.04688905 0.05487555 -0.040441506
0003f0 b2 3a d2 3d 60 dc 93 bd eb 47 c3 3d 39 21 ec 3d
       0.102651015 -0.072197676 0.09535202 0.11529774

arith.constant2 f4 [32, 1536]
000000 b1 91 37 bc 48 0b 24 3c 2c 17 84 bc f1 15 92 3c
       -0.011204169 0.010012455 -0.01612433 0.017832728
000010 24 7a 89 3b 4e 36 f0 3b 9a 27 2c 3c a8 7b f8 3b
       0.0041954685 0.0073306924 0.010507489 0.0075831003
000020 b9 86 c3 bb 44 7d 5f 3b 35 94 89 bb 94 81 3a 3c
       -0.005966988 0.0034101764 -0.004198576 0.011383433
000030 65 9a 39 3d 37 eb 9b bb 14 87 0c 3d 41 94 93 3b
       0.045313258 -0.0047582644 0.034308508 0.004503757
000040 d9 80 99 bc a5 dd 13 bc 85 f4 02 3d b4 7e 46 bb
       -0.018738197 -0.009025012 0.031971473 -0.0030287923
000050 de 63 53 bc 95 f4 91 bc 35 f3 c3 bc ec 17 a5 3c
       -0.012902228 -0.017816821 -0.023919681 0.020153008
000060 48 bc b1 3a 1c 15 36 ba f2 af a6 3c 38 2c 28 bb
       0.001356014 -0.00069458946 0.02034757 -0.0025661122
000070 ee 23 5a bc c4 60 37 3c a9 77 64 bb c8 b8 0f bc
       -0.01331423 0.011192504 -0.0034861362 -0.008772083
000080 f3 97 84 3b b6 9b 2a 3c 97 33 59 3c ab cd 0b bd
       0.004046434 0.010413101 0.013256929 -0.034131687
000090 11 fa 61 3c de 79 4d bc 69 e4 9a ba 7a 8a c8 bc
       0.013792531 -0.012541262 -0.0011817339 -0.024480093
0000a0 a7 85 13 3c c0 5d 0a bc b6 c6 3b 3c ee fc 53 3a
       0.009004033 -0.008445203 0.011460951 0.00080867007
0000b0 e9 71 21 bb 67 da 5a bb d9 e2 80 bc ce e2 e0 bb
       -0.0024634546 -0.0033394338 -0.01573317 -0.0068629747
0000c0 97 68 d5 3c 9a 7b 68 bd 12 73 ac bc cb fe 9b bc
       0.026050849 -0.0567585 -0.021050964 -0.019042393
0000d0 d2 07 74 bb f0 21 fb 3c 6c 5a 8f bc 16 f4 3b 3c
       -0.0037236107 0.030655831 -0.017499171 0.011471769
0000e0 4c 3b c4 3c d7 77 dc 3c 7c ed 92 3c bf 50 2f bc
       0.023954056 0.026912613 0.017935507 -0.010700404
0000f0 f1 86 18 bc ea 01 f0 3b 2e 3d 29 3c 62 03 a7 bc
       -0.009309516 0.007324447 0.010329528 -0.020387355
000100 78 60 ac 3c 14 7a 8b bc 52 32 e8 3a b1 a6 00 bc
       0.021042094 -0.017025985 0.0017715192 -0.007852242
000110 46 dd 6d bc 03 59 33 bc 1b 9c c0 3b 2f 1b 94 3c
       -0.014518088 -0.010946515 0.005877984 0.018079368
000120 84 16 f0 bb f3 ae 0b bc 7b 95 15 bc 4a d5 65 3b
       -0.007326903 -0.008525598 -0.009129877 0.0035069757
000130 96 53 02 bb d4 e6 96 3c 65 36 46 bc ba e7 83 3c
       -0.0019886247 0.018420614 -0.01209793 0.016101707
000140 8f b7 f1 bc 74 4e 4c 3c 59 ca c5 39 08 a1 95 bc
       -0.029506473 0.012469877 0.0003772553 -0.018265262
000150 7c 32 8d 3c 3b 04 3e 3c aa 6c c1 3b ef de 2a bc
       0.017235987 0.011597688 0.0059028463 -0.010429128
000160 e7 1a bb 3c f4 d6 39 bc 74 c6 21 bd 93 c9 02 3d
       0.022839976 -0.011342753 -0.0394959 0.031930517
000170 ec 7f ab 3c c0 e0 3c bb 3c df d5 3a 77 ce c1 bb
       0.020935021 -0.0028820485 0.0016317139 -0.005914505
000180 07 62 84 3c dd 79 fe 3c 9d cc 41 bc 46 2b 47 3d
       0.016160024 0.031063968 -0.011828569 0.048625253
000190 d0 14 b5 bc 7c 40 76 3c 5b c6 c7 bb 81 58 25 3c
       -0.02210465 0.015030023 -0.006096644 0.010091902
0001a0 91 9c b0 3b ff 25 06 3b 38 d5 fc 3a e6 27 98 3c
       0.005389758 0.0020469425 0.0019289618 0.018573713
0001b0 90 4f 06 3d 6b 5b a1 bb 81 d5 f1 3c 51 6b 25 bc
       0.03279072 -0.004924228 0.029520752 -0.010096387
0001c0 12 b5 c4 3b 40 5f 40 bc de 14 09 3c 8b c1 31 bc
       0.0060030306 -0.011741459 0.0083667915 -0.010849367
0001d0 be 54 9e 3c f1 e3 94 bc 0d d2 fc bc 1f 5c 4a bc
       0.019327518 -0.018175097 -0.030861879 -0.012351065
0001e0 35 80 fb bb 2c a1 e2 bb 99 e9 af bc b3 8c ca bc
       -0.0076751956 -0.006916186 -0.021473693 -0.024725294
0001f0 d3 bd a9 bb 5d 89 c2 3c 99 af 63 bc da ac 8e 3c
       -0.0051800995 0.02374714 -0.013896846 0.017416406
000200 a9 32 78 3c 00 11 7b b8 8d fe 7e 3c 7b 85 5a 39
       0.015148797 -5.9858896e-05 0.015563619 0.00020839825
000210 27 43 8c 3c 65 3d 75 bc 58 16 02 bc 3e 6b 96 bc
       0.017121864 -0.014968251 -0.0079398975 -0.018361684
000220 5e c4 e8 3b 67 ea a0 3c a5 4f df 3c 15 ba 5f 3c
       0.007103487 0.019643022 0.027259657 0.013655205
000230 b8 62 14 3c 77 46 92 3c 5a 3b 0d 3c 9e 76 8b bb
       0.0090567395 0.017855866 0.008620108 -0.0042560836
000240 5c 33 01 3c 7a 85 c5 bc 92 f3 dd bc 44 00 24 3c
       0.00788578 -0.024111498 -0.027093682 0.010009829
000250 5a 11 a3 39 a9 d5 9c bc 05 be 09 3c f9 58 b5 bc
       0.0003110271 -0.01914485 0.008407121 -0.022137152
000260 3d 9e 65 3c f4 79 54 3c ff 93 cd bc d9 1b 94 bc
       0.014014778 0.012968529 -0.025094984 -0.018079685
000270 e8 71 21 3c 6f 15 c7 3b 6b 6c a9 3c 8d 1b 59 bc
       0.0098538175 0.006075553 0.02068158 -0.0132511975
000280 0a f9 9c 3c d6 99 b4 bb f8 53 c2 bc f5 ac e1 bb
       0.01916172 -0.0055115027 -0.02372168 -0.006887073
000290 ea 78 9f bc cd 84 b4 3c 8d 91 60 bc 5a df 66 3b
       -0.019466836 0.02203598 -0.013706577 0.0035228343
0002a0 ea dc c9 3c 56 51 bf ba db 44 fd 3b 0b ee 82 3c
       0.024641473 -0.0014596384 0.0077291555 0.015982648
0002b0 c6 33 84 3c 84 d4 9f 3c a3 7b ca bc 81 ac 99 bc
       0.016137969 0.019510515 -0.024717158 -0.018759014
0002c0 3f fe 01 bd b6 5e 40 bc f6 d0 3a 3c 4e 87 da ba
       -0.03173661 -0.011741331 0.011402359 -0.0016672404
0002d0 8d 0d 65 3c e4 3b be 3b 4d 77 90 bc c7 f7 8e 3a
       0.013980282 0.0058054794 -0.017635012 0.0010907584
0002e0 70 c2 6b 3c 4f 50 26 bc a7 9b c3 bc b1 32 37 3c
       0.014389619 -0.010150983 -0.023877932 0.011181519
0002f0 cf fd 8a bc f2 f3 22 bc 4e 48 aa 3c bd c5 fb 3b
       -0.016966728 -0.009945856 0.02078643 0.0076834843
000300 a0 2a 63 bc 36 9a 2c bb 0d f0 04 bc de d6 39 3d
       -0.013865143 -0.0026337034 -0.008113873 0.04537093
000310 09 81 67 3c 0c 82 83 3c df 69 8d 3c 46 ea 1a bc
       0.0141298855 0.016053222 0.017262397 -0.009455269
000320 68 49 dc 3c a4 e5 82 3b 1a f0 90 bc 10 0f 36 3c
       0.026890472 0.0039946605 -0.017692614 0.01111199
000330 7e 05 1c 3c cd 49 99 bc d5 78 9f 3c fd 5e 0e 3c
       0.009522794 -0.018711949 0.019466797 0.008689639
000340 3a f1 86 bc 28 26 5e bc b1 b3 30 bc c9 dc 1e bc
       -0.016472448 -0.013558902 -0.010785029 -0.009696194
000350 bd 84 10 bb df db 44 3b 5d 21 e9 3b 19 f5 0b 3d
       -0.0022051774 0.003003828 0.007114573 0.03416929
000360 fd b8 99 bc 8a 6f 99 3c b7 9a 11 3c 89 9f c0 bc
       -0.018764967 0.018729944 0.008886985 -0.023513572
000370 bd 20 6b bc 6b f8 0c 3d 5f 24 7f bc 7a 12 d5 3b
       -0.014351067 0.034416597 -0.015572636 0.0065024467
000380 22 c4 12 bb 1d 6c ea 3c 6e f4 76 bc 3e 37 b7 3b
       -0.0022394736 0.028616006 -0.015072925 0.005591302
000390 30 b0 a1 3c 3d ad 00 3d 48 64 a8 39 ac bb 47 bc
       0.019737333 0.031415213 0.00032118172 -0.012190741
0003a0 65 7d e9 bc 7c 31 91 bc 43 9e 3b 3c 42 fa 60 3c
       -0.028502176 -0.017723791 0.011451307 0.013731541
0003b0 9c 39 a0 3c 4d 35 7e 3b d4 e7 0f bc a5 f9 84 3b
       0.01955872 0.0038789094 -0.0087832995 0.0040580803
0003c0 e9 c7 74 3c 30 2e 5d bc 47 cc 73 bc f1 bd ac bc
       0.01494024 -0.0134997815 -0.0148802465 -0.021086665
0003d0 25 cb 48 3b 9f 4b 0c bd df d9 b7 bc 50 1b 11 3c
       0.0030638662 -0.034251805 -0.022442756 0.008856609
0003e0 17 33 79 3c 7c b5 91 3c 85 34 14 3c 68 de c1 3b
       0.015209935 0.017786734 0.009045725 0.0059164055
0003f0 e5 fb de bc dd f3 fb bb 63 ca 5a 3c 9a 5f 7b bc
       -0.027219722 -0.007688983 0.013353917 -0.015342617

model_8/tf.__operators__.add/AddV2/y f4 [32]
000000 ad 1f 57 3b 7c 56 b8 3b da 57 89 3c 53 b8 09 3c
       0.0032825277 0.005625544 0.016765524 0.008405763
000010 63 7c 70 3c 88 a8 86 bc db ab d2 bc 6c ba 75 3c
       0.014678094 -0.016437784 -0.025716713 0.01499806
000020 e7 66 81 bb 3f 85 85 bc dd f6 aa bc 08 97 1d bb
       -0.0039490345 -0.016298888 -0.020869667 -0.002404632
000030 41 49 62 3c c8 39 91 bc 0e 57 1c 3c b5 42 9d bc
       0.01381141 -0.017727748 0.00954224 -0.019196847
000040 b5 de 48 bc 7b af 8f bc 0f 07 8d bc 48 52 c7 3c
       -0.012260129 -0.01753973 -0.01721528 0.024331227
000050 7b 78 a0 bc 69 99 d3 3a ac 49 aa bc a4 28 ac bc
       -0.0195887 0.0016143742 -0.020787083 -0.021015473
000060 35 ea a1 bc 98 99 04 3c 14 4e c3 3c 79 51 3e 3b
       -0.019764999 0.00809326 0.023840941 0.002904026
000070 66 5e bd bc 29 bc ab bc d8 0f 85 bc 79 a6 55 bc
       -0.023116302 -0.020963745 -0.016242906 -0.013040178

model_8/tf.__operators__.add_1/AddV2/y f4 [32]
000000 3e 05 80 3d 37 34 b1 bd b2 b6 44 bd ee 2d 2e bd
       0.06251 -0.08652537 -0.048025794 -0.04252427
000010 c3 31 87 bd d5 ab 02 bc 73 ca 81 bd 9c 58 5d bd
       -0.06601288 -0.007975538 -0.06337442 -0.054039583
000020 40 fd 2e 3e 00 ca 41 3d 31 42 eb 3c 31 7e b3 3d
       0.17088795 0.047311783 0.028718086 0.087643035
000030 75 1f a0 3c a7 55 81 bd e8 1f d6 bd 1d b9 e1 bd
       0.01954625 -0.06315165 -0.104553044 -0.11021636
000040 8f e7 7d 3d 74 c2 b2 bd 64 c9 e1 bc 1e cf 29 3c
       0.06198841 -0.08728495 -0.02756185 0.010364322
000050 83 c2 17 3d c1 56 dc bd 47 fb a3 3d 4f 44 50 bc
       0.037050735 -0.107587345 0.08006912 -0.012711599
000060 05 85 0b be 2f dc 71 bd 98 18 30 3d d0 36 48 bd
       -0.13624962 -0.059047874 0.042992204 -0.0488804
000070 6a d6 2e be cc 9a 46 bd d7 aa 76 bd b2 b2 fe bd
       -0.1707398 -0.04848747 -0.06022152 -0.12436427

model_8/tf.math.add_2/Add/y f4 [1, 32]
000000 b0 33 81 3c 34 37 01 3a 40 73 27 3d 5f 49 c8 3b
       0.015771717 0.00049291854 0.040881395 0.006112262
000010 63 45 c7 bc d2 90 4b 3b 73 03 d5 bb d2 eb b3 ba
       -0.024325078 0.0031061661 -0.0065006553 -0.0013726896
000020 57 cf ec 3a c9 b4 45 bb 35 0a 9d bd fa 64 23 3c
       0.0018067163 -0.003016757 -0.076679625 0.009972805
000030 a2 fa de bc a7 57 ed bb a9 16 2a 3b 85 38 b3 bb
       -0.02721912 -0.007243115 0.0025953448 -0.005469384
000040 43 2a 5f 38 3a 52 2f 3c 14 58 5c bc b4 43 d7 39
       5.3206702e-05 0.010700757 -0.013448734 0.00041058438
000050 80 92 ae 3b 94 d2 37 3b e0 f4 56 3a dd 20 1c 3b
       0.0053275228 0.0028049098 0.00081999414 0.00238233
000060 dc 22 cd 3b 0a b9 d1 bc f3 eb 52 bc 72 f1 26 ba
       0.006260259 -0.025600929 -0.0128736375 -0.00063683756
000070 02 8d 4c 3c 0e df ea 3c 48 03 01 bd 62 78 72 3c
       0.012484791 0.028670814 -0.03149727 0.014799209

model_8/tf.math.add_5/Add/y f4 [1, 32]
000000 b6 58 77 3e d4 ae b0 3c cc bb b5 3b f6 dd 84 b9
       0.24154934 0.02156774 0.005546069 -0.00025342376
000010 a7 92 a0 3e 39 c0 99 3d 44 03 46 3d 79 f2 18 3d
       0.31361887 0.07507367 0.048342958 0.037340615
000020 ae 67 44 3d c9 77 cb bc d8 ec 73 3e 38 fb a7 3d
       0.04795044 -0.024837391 0.23820817 0.08202213
000030 16 1c 73 3e 2f bd 85 3e 43 07 f4 3c a5 de 63 3d
       0.23741183 0.26120898 0.029788619 0.055632252
000040 7a cc e6 3c b2 42 18 3d a4 ac bc 3c 30 e0 27 3d
       0.028173674 0.03717298 0.02303154 0.040985286
000050 2d 5f 3e 3d 21 70 72 3d a1 95 00 3b 14 4e 7b 3e
       0.046477485 0.059188966 0.0019620436 0.24541503
000060 5d d7 85 3c 08 e3 55 bd d9 d1 b3 3c 55 b5 3f 3d
       0.016338045 -0.052218467 0.02195065 0.04680379
000070 92 9b 79 3d 06 72 26 3d 8e 05 80 3e 8e 7c 73 3e
       0.06093938 0.040636085 0.25004238 0.23777983

model_8/tf.math.multiply_10/Mul/y f4 [1, 32]
000000 8f 9d 82 3f 78 5f 81 3f cb 3f 82 3f 56 c4 82 3f
       1.0204333 1.010726 1.0175718 1.0216167
000010 d5 3f 78 3f ea 59 81 3f 19 50 7e 3f b0 bd 80 3f
       0.969724 1.0105565 0.9934097 1.0057888
000020 82 43 80 3f 87 c4 7d 3f a8 20 78 3f a9 c5 7b 3f
       1.0020602 0.99128 0.9692483 0.9834848
000030 98 ad 7d 3f 38 5b 82 3f 51 ca 81 3f 67 9f 79 3f
       0.9909301 1.0184088 1.0139867 0.97508854
000040 a7 88 7f 3f b1 16 80 3f 65 14 7f 3f 8e 11 7c 3f
       0.9981789 1.0006925 0.99640495 0.98464286
000050 ec 05 81 3f c8 e8 80 3f 80 60 7a 3f 13 35 79 3f
       1.0079932 1.0071039 0.978035 0.9734661
000060 2a 4c 81 3f f3 89 7b 3f 6b 0a 7d 3f 87 99 7f 3f
       1.0101368 0.9825737 0.9884402 0.9984364
000070 66 7b 81 3f 9d 56 80 3f 9e b7 7a 3f 31 f5 81 3f
       1.0115783 1.0026432 0.9793643 1.0152951

model_8/tf.math.multiply_22/Mul/y f4 [1, 32]
000000 59 6f 9f 3f cc 94 86 3f 30 e3 80 3f 63 f6 7a 3f
       1.2455856 1.0514159 1.0069332 0.98032206
000010 bb aa b4 3f 26 fb 8e 3f c8 72 85 3f bd 08 83 3f
       1.4114603 1.1170394 1.0425653 1.0237042
000020 c6 4a 88 3f 9b a1 84 3f b8 c7 9e 3f 20 26 8f 3f
       1.0647819 1.0361818 1.2404699 1.118351
000030 50 84 9d 3f 92 3a a5 3f 29 7d 8d 3f 80 9f 88 3f
       1.2306004 1.2908499 1.1053821 1.0673676
000040 fc b0 83 3f 76 98 89 3f b3 32 83 3f d0 39 89 3f
       1.0288386 1.0749652 1.0249847 1.0720768
000050 bc 41 88 3f c5 d8 86 3f 2f 7a 7f 3f 47 1b 9f 3f
       1.064506 1.0534903 0.9979581 1.2430199
000060 0b 12 87 3f 78 52 79 3f 27 7d 82 3f 5b 52 89 3f
       1.0552381 0.9739146 1.0194443 1.0728258
000070 12 b2 87 3f 9c b6 85 3f 64 bf a1 3f f3 a8 9e 3f
       1.0601218 1.0446353 1.2636533 1.2395309
